[ 2019-01-15 11:11:52,631][layer_utils] _________________________________________________________________
[ 2019-01-15 11:11:52,632][layer_utils] Layer (type)                 Output Shape              Param #   
[ 2019-01-15 11:11:52,632][layer_utils] =================================================================
[ 2019-01-15 11:11:52,633][layer_utils] embedding (Embedding)        (None, 2000, 50)          6062400   
[ 2019-01-15 11:11:52,634][layer_utils] _________________________________________________________________
[ 2019-01-15 11:11:52,635][layer_utils] dropout (Dropout)            (None, 2000, 50)          0         
[ 2019-01-15 11:11:52,635][layer_utils] _________________________________________________________________
[ 2019-01-15 11:11:52,636][layer_utils] conv1d (Conv1D)              (None, 1801, 64)          640064    
[ 2019-01-15 11:11:52,637][layer_utils] _________________________________________________________________
[ 2019-01-15 11:11:52,638][layer_utils] dropout_1 (Dropout)          (None, 1801, 64)          0         
[ 2019-01-15 11:11:52,639][layer_utils] _________________________________________________________________
[ 2019-01-15 11:11:52,640][layer_utils] conv1d_1 (Conv1D)            (None, 1602, 64)          819264    
[ 2019-01-15 11:11:52,641][layer_utils] _________________________________________________________________
[ 2019-01-15 11:11:52,642][layer_utils] dropout_2 (Dropout)          (None, 1602, 64)          0         
[ 2019-01-15 11:11:52,643][layer_utils] _________________________________________________________________
[ 2019-01-15 11:11:52,644][layer_utils] lstm (LSTM)                  (None, 1602, 10)          3000      
[ 2019-01-15 11:11:52,644][layer_utils] _________________________________________________________________
[ 2019-01-15 11:11:52,645][layer_utils] flatten (Flatten)            (None, 16020)             0         
[ 2019-01-15 11:11:52,645][layer_utils] _________________________________________________________________
[ 2019-01-15 11:11:52,646][layer_utils] dense (Dense)                (None, 4)                 64084     
[ 2019-01-15 11:11:52,647][layer_utils] =================================================================
[ 2019-01-15 11:11:52,648][layer_utils] Total params: 7,588,812
[ 2019-01-15 11:11:52,648][layer_utils] Trainable params: 1,526,412
[ 2019-01-15 11:11:52,649][layer_utils] Non-trainable params: 6,062,400
[ 2019-01-15 11:11:52,649][layer_utils] _________________________________________________________________
[ 2019-01-15 11:15:43,074][layer_utils] _________________________________________________________________
[ 2019-01-15 11:15:43,081][layer_utils] Layer (type)                 Output Shape              Param #   
[ 2019-01-15 11:15:43,082][layer_utils] =================================================================
[ 2019-01-15 11:15:43,083][layer_utils] embedding_1 (Embedding)      (None, 2000, 50)          6062400   
[ 2019-01-15 11:15:43,084][layer_utils] _________________________________________________________________
[ 2019-01-15 11:15:43,084][layer_utils] dropout_3 (Dropout)          (None, 2000, 50)          0         
[ 2019-01-15 11:15:43,085][layer_utils] _________________________________________________________________
[ 2019-01-15 11:15:43,086][layer_utils] conv1d_2 (Conv1D)            (None, 1801, 64)          640064    
[ 2019-01-15 11:15:43,087][layer_utils] _________________________________________________________________
[ 2019-01-15 11:15:43,087][layer_utils] dropout_4 (Dropout)          (None, 1801, 64)          0         
[ 2019-01-15 11:15:43,088][layer_utils] _________________________________________________________________
[ 2019-01-15 11:15:43,089][layer_utils] conv1d_3 (Conv1D)            (None, 1602, 64)          819264    
[ 2019-01-15 11:15:43,089][layer_utils] _________________________________________________________________
[ 2019-01-15 11:15:43,090][layer_utils] dropout_5 (Dropout)          (None, 1602, 64)          0         
[ 2019-01-15 11:15:43,091][layer_utils] _________________________________________________________________
[ 2019-01-15 11:15:43,091][layer_utils] lstm_1 (LSTM)                (None, 1602, 10)          3000      
[ 2019-01-15 11:15:43,092][layer_utils] _________________________________________________________________
[ 2019-01-15 11:15:43,093][layer_utils] flatten_1 (Flatten)          (None, 16020)             0         
[ 2019-01-15 11:15:43,093][layer_utils] _________________________________________________________________
[ 2019-01-15 11:15:43,094][layer_utils] dense_1 (Dense)              (None, 4)                 64084     
[ 2019-01-15 11:15:43,095][layer_utils] =================================================================
[ 2019-01-15 11:15:43,096][layer_utils] Total params: 7,588,812
[ 2019-01-15 11:15:43,096][layer_utils] Trainable params: 1,526,412
[ 2019-01-15 11:15:43,097][layer_utils] Non-trainable params: 6,062,400
[ 2019-01-15 11:15:43,098][layer_utils] _________________________________________________________________
