[ 2019-01-15 10:59:06,458][end2end] Loaded 400000 word vectors.
[ 2019-01-15 10:59:07,457][layer_utils] _________________________________________________________________
[ 2019-01-15 10:59:07,457][layer_utils] Layer (type)                 Output Shape              Param #   
[ 2019-01-15 10:59:07,457][layer_utils] =================================================================
[ 2019-01-15 10:59:07,457][layer_utils] embedding (Embedding)        (None, 2000, 50)          6062400   
[ 2019-01-15 10:59:07,457][layer_utils] _________________________________________________________________
[ 2019-01-15 10:59:07,457][layer_utils] dropout (Dropout)            (None, 2000, 50)          0         
[ 2019-01-15 10:59:07,458][layer_utils] _________________________________________________________________
[ 2019-01-15 10:59:07,458][layer_utils] conv1d (Conv1D)              (None, 1981, 256)         256256    
[ 2019-01-15 10:59:07,458][layer_utils] _________________________________________________________________
[ 2019-01-15 10:59:07,458][layer_utils] dropout_1 (Dropout)          (None, 1981, 256)         0         
[ 2019-01-15 10:59:07,458][layer_utils] _________________________________________________________________
[ 2019-01-15 10:59:07,458][layer_utils] conv1d_1 (Conv1D)            (None, 1972, 128)         327808    
[ 2019-01-15 10:59:07,458][layer_utils] _________________________________________________________________
[ 2019-01-15 10:59:07,458][layer_utils] dropout_2 (Dropout)          (None, 1972, 128)         0         
[ 2019-01-15 10:59:07,458][layer_utils] _________________________________________________________________
[ 2019-01-15 10:59:07,458][layer_utils] lstm (LSTM)                  (None, 1972, 50)          35800     
[ 2019-01-15 10:59:07,458][layer_utils] _________________________________________________________________
[ 2019-01-15 10:59:07,459][layer_utils] conv1d_2 (Conv1D)            (None, 1968, 32)          8032      
[ 2019-01-15 10:59:07,459][layer_utils] _________________________________________________________________
[ 2019-01-15 10:59:07,459][layer_utils] dropout_3 (Dropout)          (None, 1968, 32)          0         
[ 2019-01-15 10:59:07,459][layer_utils] _________________________________________________________________
[ 2019-01-15 10:59:07,459][layer_utils] global_max_pooling1d (Global (None, 32)                0         
[ 2019-01-15 10:59:07,459][layer_utils] _________________________________________________________________
[ 2019-01-15 10:59:07,459][layer_utils] dense (Dense)                (None, 4)                 132       
[ 2019-01-15 10:59:07,459][layer_utils] =================================================================
[ 2019-01-15 10:59:07,459][layer_utils] Total params: 6,690,428
[ 2019-01-15 10:59:07,459][layer_utils] Trainable params: 628,028
[ 2019-01-15 10:59:07,459][layer_utils] Non-trainable params: 6,062,400
[ 2019-01-15 10:59:07,460][layer_utils] _________________________________________________________________
…
